#接上面
layer {
  name: "ch_concat_mixed_5_chconcat"
  type: "Concat"
  bottom: "mixed_5_conv_conv2d_relu"
  bottom: "mixed_5_tower_conv_2_conv2d_relu"
  bottom: "mixed_5_tower_1_conv_4_conv2d_relu"
  bottom: "mixed_5_tower_2_conv_conv2d_relu"
  top: "ch_concat_mixed_5_chconcat"
  concat_param {
    axis: 1
  }
}
layer {
  name: "mixed_6_conv_conv2d"
  type: "Convolution"
  bottom: "ch_concat_mixed_5_chconcat"
  top: "mixed_6_conv_conv2d"
  param {
    lr_mult: 1.0
    decay_mult: 1.0
  }
  convolution_param {
    num_output: 192
    bias_term: false
    pad: 0
    kernel_size: 1
    stride: 1
    weight_filler {
      type: "gaussian"
      std: 0.01
    }
  }
}
layer {
  name: "mixed_6_conv_batchnorm"
  type: "BatchNorm"
  bottom: "mixed_6_conv_conv2d"
  top: "mixed_6_conv_conv2d_bn"
  param {
    lr_mult: 0.0
  }
  param {
    lr_mult: 0.0
  }
  param {
    lr_mult: 0.0
  }
  batch_norm_param {
    use_global_stats: false
    moving_average_fraction: 0.9997
    eps: 0.001
    scale_filler {
      type: "constant"
      value: 1.0
    }
    bias_filler {
      type: "constant"
      value: 0.0
    }
    engine: CUDNN
  }
}
layer {
  name: "mixed_6_conv_relu"
  type: "ReLU"
  bottom: "mixed_6_conv_conv2d_bn"
  top: "mixed_6_conv_conv2d_relu"
}
layer {
  name: "mixed_6_tower_conv_conv2d"
  type: "Convolution"
  bottom: "ch_concat_mixed_5_chconcat"
  top: "mixed_6_tower_conv_conv2d"
  param {
    lr_mult: 1.0
    decay_mult: 1.0
  }
  convolution_param {
    num_output: 160
    bias_term: false
    pad: 0
    kernel_size: 1
    stride: 1
    weight_filler {
      type: "gaussian"
      std: 0.01
    }
  }
}
layer {
  name: "mixed_6_tower_conv_batchnorm"
  type: "BatchNorm"
  bottom: "mixed_6_tower_conv_conv2d"
  top: "mixed_6_tower_conv_conv2d_bn"
  param {
    lr_mult: 0.0
  }
  param {
    lr_mult: 0.0
  }
  param {
    lr_mult: 0.0
  }
  batch_norm_param {
    use_global_stats: false
    moving_average_fraction: 0.9997
    eps: 0.001
    scale_filler {
      type: "constant"
      value: 1.0
    }
    bias_filler {
      type: "constant"
      value: 0.0
    }
    engine: CUDNN
  }
}
layer {
  name: "mixed_6_tower_conv_relu"
  type: "ReLU"
  bottom: "mixed_6_tower_conv_conv2d_bn"
  top: "mixed_6_tower_conv_conv2d_relu"
}
layer {
  name: "mixed_6_tower_conv_1_conv2d"
  type: "Convolution"
  bottom: "mixed_6_tower_conv_conv2d_relu"
  top: "mixed_6_tower_conv_1_conv2d"
  param {
    lr_mult: 1.0
    decay_mult: 1.0
  }
  convolution_param {
    num_output: 160
    bias_term: false
    stride: 1
    weight_filler {
      type: "gaussian"
      std: 0.01
    }
    pad_h: 0
    pad_w: 3
    kernel_h: 1
    kernel_w: 7
  }
}
layer {
  name: "mixed_6_tower_conv_1_batchnorm"
  type: "BatchNorm"
  bottom: "mixed_6_tower_conv_1_conv2d"
  top: "mixed_6_tower_conv_1_conv2d_bn"
  param {
    lr_mult: 0.0
  }
  param {
    lr_mult: 0.0
  }
  param {
    lr_mult: 0.0
  }
  batch_norm_param {
    use_global_stats: false
    moving_average_fraction: 0.9997
    eps: 0.001
    scale_filler {
      type: "constant"
      value: 1.0
    }
    bias_filler {
      type: "constant"
      value: 0.0
    }
    engine: CUDNN
  }
}
layer {
  name: "mixed_6_tower_conv_1_relu"
  type: "ReLU"
  bottom: "mixed_6_tower_conv_1_conv2d_bn"
  top: "mixed_6_tower_conv_1_conv2d_relu"
}
layer {
  name: "mixed_6_tower_conv_2_conv2d"
  type: "Convolution"
  bottom: "mixed_6_tower_conv_1_conv2d_relu"
  top: "mixed_6_tower_conv_2_conv2d"
  param {
    lr_mult: 1.0
    decay_mult: 1.0
  }
  convolution_param {
    num_output: 192
    bias_term: false
    stride: 1
    weight_filler {
      type: "gaussian"
      std: 0.01
    }
    pad_h: 3
    pad_w: 0
    kernel_h: 7
    kernel_w: 1
  }
}
layer {
  name: "mixed_6_tower_conv_2_batchnorm"
  type: "BatchNorm"
  bottom: "mixed_6_tower_conv_2_conv2d"
  top: "mixed_6_tower_conv_2_conv2d_bn"
  param {
    lr_mult: 0.0
  }
  param {
    lr_mult: 0.0
  }
  param {
    lr_mult: 0.0
  }
  batch_norm_param {
    use_global_stats: false
    moving_average_fraction: 0.9997
    eps: 0.001
    scale_filler {
      type: "constant"
      value: 1.0
    }
    bias_filler {
      type: "constant"
      value: 0.0
    }
    engine: CUDNN
  }
}
layer {
  name: "mixed_6_tower_conv_2_relu"
  type: "ReLU"
  bottom: "mixed_6_tower_conv_2_conv2d_bn"
  top: "mixed_6_tower_conv_2_conv2d_relu"
}
layer {
  name: "mixed_6_tower_1_conv_conv2d"
  type: "Convolution"
  bottom: "ch_concat_mixed_5_chconcat"
  top: "mixed_6_tower_1_conv_conv2d"
  param {
    lr_mult: 1.0
    decay_mult: 1.0
  }
  convolution_param {
    num_output: 160
    bias_term: false
    pad: 0
    kernel_size: 1
    stride: 1
    weight_filler {
      type: "gaussian"
      std: 0.01
    }
  }
}
layer {
  name: "mixed_6_tower_1_conv_batchnorm"
  type: "BatchNorm"
  bottom: "mixed_6_tower_1_conv_conv2d"
  top: "mixed_6_tower_1_conv_conv2d_bn"
  param {
    lr_mult: 0.0
  }
  param {
    lr_mult: 0.0
  }
  param {
    lr_mult: 0.0
  }
  batch_norm_param {
    use_global_stats: false
    moving_average_fraction: 0.9997
    eps: 0.001
    scale_filler {
      type: "constant"
      value: 1.0
    }
    bias_filler {
      type: "constant"
      value: 0.0
    }
    engine: CUDNN
  }
}
layer {
  name: "mixed_6_tower_1_conv_relu"
  type: "ReLU"
  bottom: "mixed_6_tower_1_conv_conv2d_bn"
  top: "mixed_6_tower_1_conv_conv2d_relu"
}
layer {
  name: "mixed_6_tower_1_conv_1_conv2d"
  type: "Convolution"
  bottom: "mixed_6_tower_1_conv_conv2d_relu"
  top: "mixed_6_tower_1_conv_1_conv2d"
  param {
    lr_mult: 1.0
    decay_mult: 1.0
  }
  convolution_param {
    num_output: 160
    bias_term: false
    stride: 1
    weight_filler {
      type: "gaussian"
      std: 0.01
    }
    pad_h: 3
    pad_w: 0
    kernel_h: 7
    kernel_w: 1
  }
}
layer {
  name: "mixed_6_tower_1_conv_1_batchnorm"
  type: "BatchNorm"
  bottom: "mixed_6_tower_1_conv_1_conv2d"
  top: "mixed_6_tower_1_conv_1_conv2d_bn"
  param {
    lr_mult: 0.0
  }
  param {
    lr_mult: 0.0
  }
  param {
    lr_mult: 0.0
  }
  batch_norm_param {
    use_global_stats: false
    moving_average_fraction: 0.9997
    eps: 0.001
    scale_filler {
      type: "constant"
      value: 1.0
    }
    bias_filler {
      type: "constant"
      value: 0.0
    }
    engine: CUDNN
  }
}
layer {
  name: "mixed_6_tower_1_conv_1_relu"
  type: "ReLU"
  bottom: "mixed_6_tower_1_conv_1_conv2d_bn"
  top: "mixed_6_tower_1_conv_1_conv2d_relu"
}
layer {
  name: "mixed_6_tower_1_conv_2_conv2d"
  type: "Convolution"
  bottom: "mixed_6_tower_1_conv_1_conv2d_relu"
  top: "mixed_6_tower_1_conv_2_conv2d"
  param {
    lr_mult: 1.0
    decay_mult: 1.0
  }
  convolution_param {
    num_output: 160
    bias_term: false
    stride: 1
    weight_filler {
      type: "gaussian"
      std: 0.01
    }
    pad_h: 0
    pad_w: 3
    kernel_h: 1
    kernel_w: 7
  }
}
layer {
  name: "mixed_6_tower_1_conv_2_batchnorm"
  type: "BatchNorm"
  bottom: "mixed_6_tower_1_conv_2_conv2d"
  top: "mixed_6_tower_1_conv_2_conv2d_bn"
  param {
    lr_mult: 0.0
  }
  param {
    lr_mult: 0.0
  }
  param {
    lr_mult: 0.0
  }
  batch_norm_param {
    use_global_stats: false
    moving_average_fraction: 0.9997
    eps: 0.001
    scale_filler {
      type: "constant"
      value: 1.0
    }
    bias_filler {
      type: "constant"
      value: 0.0
    }
    engine: CUDNN
  }
}
layer {
  name: "mixed_6_tower_1_conv_2_relu"
  type: "ReLU"
  bottom: "mixed_6_tower_1_conv_2_conv2d_bn"
  top: "mixed_6_tower_1_conv_2_conv2d_relu"
}
layer {
  name: "mixed_6_tower_1_conv_3_conv2d"
  type: "Convolution"
  bottom: "mixed_6_tower_1_conv_2_conv2d_relu"
  top: "mixed_6_tower_1_conv_3_conv2d"
  param {
    lr_mult: 1.0
    decay_mult: 1.0
  }
  convolution_param {
    num_output: 160
    bias_term: false
    stride: 1
    weight_filler {
      type: "gaussian"
      std: 0.01
    }
    pad_h: 3
    pad_w: 0
    kernel_h: 7
    kernel_w: 1
  }
}
layer {
  name: "mixed_6_tower_1_conv_3_batchnorm"
  type: "BatchNorm"
  bottom: "mixed_6_tower_1_conv_3_conv2d"
  top: "mixed_6_tower_1_conv_3_conv2d_bn"
  param {
    lr_mult: 0.0
  }
  param {
    lr_mult: 0.0
  }
  param {
    lr_mult: 0.0
  }
  batch_norm_param {
    use_global_stats: false
    moving_average_fraction: 0.9997
    eps: 0.001
    scale_filler {
      type: "constant"
      value: 1.0
    }
    bias_filler {
      type: "constant"
      value: 0.0
    }
    engine: CUDNN
  }
}
layer {
  name: "mixed_6_tower_1_conv_3_relu"
  type: "ReLU"
  bottom: "mixed_6_tower_1_conv_3_conv2d_bn"
  top: "mixed_6_tower_1_conv_3_conv2d_relu"
}
layer {
  name: "mixed_6_tower_1_conv_4_conv2d"
  type: "Convolution"
  bottom: "mixed_6_tower_1_conv_3_conv2d_relu"
  top: "mixed_6_tower_1_conv_4_conv2d"
  param {
    lr_mult: 1.0
    decay_mult: 1.0
  }
  convolution_param {
    num_output: 192
    bias_term: false
    stride: 1
    weight_filler {
      type: "gaussian"
      std: 0.01
    }
    pad_h: 0
    pad_w: 3
    kernel_h: 1
    kernel_w: 7
  }
}
layer {
  name: "mixed_6_tower_1_conv_4_batchnorm"
  type: "BatchNorm"
  bottom: "mixed_6_tower_1_conv_4_conv2d"
  top: "mixed_6_tower_1_conv_4_conv2d_bn"
  param {
    lr_mult: 0.0
  }
  param {
    lr_mult: 0.0
  }
  param {
    lr_mult: 0.0
  }
  batch_norm_param {
    use_global_stats: false
    moving_average_fraction: 0.9997
    eps: 0.001
    scale_filler {
      type: "constant"
      value: 1.0
    }
    bias_filler {
      type: "constant"
      value: 0.0
    }
    engine: CUDNN
  }
}
layer {
  name: "mixed_6_tower_1_conv_4_relu"
  type: "ReLU"
  bottom: "mixed_6_tower_1_conv_4_conv2d_bn"
  top: "mixed_6_tower_1_conv_4_conv2d_relu"
}
layer {
  name: "AVE_pool_mixed_6_pool"
  type: "Pooling"
  bottom: "ch_concat_mixed_5_chconcat"
  top: "AVE_pool_mixed_6_pool"
  pooling_param {
    pool: AVE
    kernel_size: 3
    stride: 1
    pad: 1
  }
}
layer {
  name: "mixed_6_tower_2_conv_conv2d"
  type: "Convolution"
  bottom: "AVE_pool_mixed_6_pool"
  top: "mixed_6_tower_2_conv_conv2d"
  param {
    lr_mult: 1.0
    decay_mult: 1.0
  }
  convolution_param {
    num_output: 192
    bias_term: false
    pad: 0
    kernel_size: 1
    stride: 1
    weight_filler {
      type: "gaussian"
      std: 0.01
    }
  }
}
layer {
  name: "mixed_6_tower_2_conv_batchnorm"
  type: "BatchNorm"
  bottom: "mixed_6_tower_2_conv_conv2d"
  top: "mixed_6_tower_2_conv_conv2d_bn"
  param {
    lr_mult: 0.0
  }
  param {
    lr_mult: 0.0
  }
  param {
    lr_mult: 0.0
  }
  batch_norm_param {
    use_global_stats: false
    moving_average_fraction: 0.9997
    eps: 0.001
    scale_filler {
      type: "constant"
      value: 1.0
    }
    bias_filler {
      type: "constant"
      value: 0.0
    }
    engine: CUDNN
  }
}
layer {
  name: "mixed_6_tower_2_conv_relu"
  type: "ReLU"
  bottom: "mixed_6_tower_2_conv_conv2d_bn"
  top: "mixed_6_tower_2_conv_conv2d_relu"
}
layer {
  name: "ch_concat_mixed_6_chconcat"
  type: "Concat"
  bottom: "mixed_6_conv_conv2d_relu"
  bottom: "mixed_6_tower_conv_2_conv2d_relu"
  bottom: "mixed_6_tower_1_conv_4_conv2d_relu"
  bottom: "mixed_6_tower_2_conv_conv2d_relu"
  top: "ch_concat_mixed_6_chconcat"
  concat_param {
    axis: 1
  }
}
layer {
  name: "mixed_7_conv_conv2d"
  type: "Convolution"
  bottom: "ch_concat_mixed_6_chconcat"
  top: "mixed_7_conv_conv2d"
  param {
    lr_mult: 1.0
    decay_mult: 1.0
  }
  convolution_param {
    num_output: 192
    bias_term: false
    pad: 0
    kernel_size: 1
    stride: 1
    weight_filler {
      type: "gaussian"
      std: 0.01
    }
  }
}
layer {
  name: "mixed_7_conv_batchnorm"
  type: "BatchNorm"
  bottom: "mixed_7_conv_conv2d"
  top: "mixed_7_conv_conv2d_bn"
  param {
    lr_mult: 0.0
  }
  param {
    lr_mult: 0.0
  }
  param {
    lr_mult: 0.0
  }
  batch_norm_param {
    use_global_stats: false
    moving_average_fraction: 0.9997
    eps: 0.001
    scale_filler {
      type: "constant"
      value: 1.0
    }
    bias_filler {
      type: "constant"
      value: 0.0
    }
    engine: CUDNN
  }
}
layer {
  name: "mixed_7_conv_relu"
  type: "ReLU"
  bottom: "mixed_7_conv_conv2d_bn"
  top: "mixed_7_conv_conv2d_relu"
}
layer {
  name: "mixed_7_tower_conv_conv2d"
  type: "Convolution"
  bottom: "ch_concat_mixed_6_chconcat"
  top: "mixed_7_tower_conv_conv2d"
  param {
    lr_mult: 1.0
    decay_mult: 1.0
  }
  convolution_param {
    num_output: 192
    bias_term: false
    pad: 0
    kernel_size: 1
    stride: 1
    weight_filler {
      type: "gaussian"
      std: 0.01
    }
  }
}
layer {
  name: "mixed_7_tower_conv_batchnorm"
  type: "BatchNorm"
  bottom: "mixed_7_tower_conv_conv2d"
  top: "mixed_7_tower_conv_conv2d_bn"
  param {
    lr_mult: 0.0
  }
  param {
    lr_mult: 0.0
  }
  param {
    lr_mult: 0.0
  }
  batch_norm_param {
    use_global_stats: false
    moving_average_fraction: 0.9997
    eps: 0.001
    scale_filler {
      type: "constant"
      value: 1.0
    }
    bias_filler {
      type: "constant"
      value: 0.0
    }
    engine: CUDNN
  }
}
layer {
  name: "mixed_7_tower_conv_relu"
  type: "ReLU"
  bottom: "mixed_7_tower_conv_conv2d_bn"
  top: "mixed_7_tower_conv_conv2d_relu"
}
layer {
  name: "mixed_7_tower_conv_1_conv2d"
  type: "Convolution"
  bottom: "mixed_7_tower_conv_conv2d_relu"
  top: "mixed_7_tower_conv_1_conv2d"
  param {
    lr_mult: 1.0
    decay_mult: 1.0
  }
  convolution_param {
    num_output: 192
    bias_term: false
    stride: 1
    weight_filler {
      type: "gaussian"
      std: 0.01
    }
    pad_h: 0
    pad_w: 3
    kernel_h: 1
    kernel_w: 7
  }
}
layer {
  name: "mixed_7_tower_conv_1_batchnorm"
  type: "BatchNorm"
  bottom: "mixed_7_tower_conv_1_conv2d"
  top: "mixed_7_tower_conv_1_conv2d_bn"
  param {
    lr_mult: 0.0
  }
  param {
    lr_mult: 0.0
  }
  param {
    lr_mult: 0.0
  }
  batch_norm_param {
    use_global_stats: false
    moving_average_fraction: 0.9997
    eps: 0.001
    scale_filler {
      type: "constant"
      value: 1.0
    }
    bias_filler {
      type: "constant"
      value: 0.0
    }
    engine: CUDNN
  }
}
layer {
  name: "mixed_7_tower_conv_1_relu"
  type: "ReLU"
  bottom: "mixed_7_tower_conv_1_conv2d_bn"
  top: "mixed_7_tower_conv_1_conv2d_relu"
}
layer {
  name: "mixed_7_tower_conv_2_conv2d"
  type: "Convolution"
  bottom: "mixed_7_tower_conv_1_conv2d_relu"
  top: "mixed_7_tower_conv_2_conv2d"
  param {
    lr_mult: 1.0
    decay_mult: 1.0
  }
  convolution_param {
    num_output: 192
    bias_term: false
    stride: 1
    weight_filler {
      type: "gaussian"
      std: 0.01
    }
    pad_h: 3
    pad_w: 0
    kernel_h: 7
    kernel_w: 1
  }
}
layer {
  name: "mixed_7_tower_conv_2_batchnorm"
  type: "BatchNorm"
  bottom: "mixed_7_tower_conv_2_conv2d"
  top: "mixed_7_tower_conv_2_conv2d_bn"
  param {
    lr_mult: 0.0
  }
  param {
    lr_mult: 0.0
  }
  param {
    lr_mult: 0.0
  }
  batch_norm_param {
    use_global_stats: false
    moving_average_fraction: 0.9997
    eps: 0.001
    scale_filler {
      type: "constant"
      value: 1.0
    }
    bias_filler {
      type: "constant"
      value: 0.0
    }
    engine: CUDNN
  }
}
layer {
  name: "mixed_7_tower_conv_2_relu"
  type: "ReLU"
  bottom: "mixed_7_tower_conv_2_conv2d_bn"
  top: "mixed_7_tower_conv_2_conv2d_relu"
}
layer {
  name: "mixed_7_tower_1_conv_conv2d"
  type: "Convolution"
  bottom: "ch_concat_mixed_6_chconcat"
  top: "mixed_7_tower_1_conv_conv2d"
  param {
    lr_mult: 1.0
    decay_mult: 1.0
  }
  convolution_param {
    num_output: 192
    bias_term: false
    pad: 0
    kernel_size: 1
    stride: 1
    weight_filler {
      type: "gaussian"
      std: 0.01
    }
  }
}
layer {
  name: "mixed_7_tower_1_conv_batchnorm"
  type: "BatchNorm"
  bottom: "mixed_7_tower_1_conv_conv2d"
  top: "mixed_7_tower_1_conv_conv2d_bn"
  param {
    lr_mult: 0.0
  }
  param {
    lr_mult: 0.0
  }
  param {
    lr_mult: 0.0
  }
  batch_norm_param {
    use_global_stats: false
    moving_average_fraction: 0.9997
    eps: 0.001
    scale_filler {
      type: "constant"
      value: 1.0
    }
    bias_filler {
      type: "constant"
      value: 0.0
    }
    engine: CUDNN
  }
}
layer {
  name: "mixed_7_tower_1_conv_relu"
  type: "ReLU"
  bottom: "mixed_7_tower_1_conv_conv2d_bn"
  top: "mixed_7_tower_1_conv_conv2d_relu"
}
layer {
  name: "mixed_7_tower_1_conv_1_conv2d"
  type: "Convolution"
  bottom: "mixed_7_tower_1_conv_conv2d_relu"
  top: "mixed_7_tower_1_conv_1_conv2d"
  param {
    lr_mult: 1.0
    decay_mult: 1.0
  }
  convolution_param {
    num_output: 192
    bias_term: false
    stride: 1
    weight_filler {
      type: "gaussian"
      std: 0.01
    }
    pad_h: 3
    pad_w: 0
    kernel_h: 7
    kernel_w: 1
  }
}
layer {
  name: "mixed_7_tower_1_conv_1_batchnorm"
  type: "BatchNorm"
  bottom: "mixed_7_tower_1_conv_1_conv2d"
  top: "mixed_7_tower_1_conv_1_conv2d_bn"
  param {
    lr_mult: 0.0
  }
  param {
    lr_mult: 0.0
  }
  param {
    lr_mult: 0.0
  }
  batch_norm_param {
    use_global_stats: false
    moving_average_fraction: 0.9997
    eps: 0.001
    scale_filler {
      type: "constant"
      value: 1.0
    }
    bias_filler {
      type: "constant"
      value: 0.0
    }
    engine: CUDNN
  }
}
layer {
  name: "mixed_7_tower_1_conv_1_relu"
  type: "ReLU"
  bottom: "mixed_7_tower_1_conv_1_conv2d_bn"
  top: "mixed_7_tower_1_conv_1_conv2d_relu"
}
layer {
  name: "mixed_7_tower_1_conv_2_conv2d"
  type: "Convolution"
  bottom: "mixed_7_tower_1_conv_1_conv2d_relu"
  top: "mixed_7_tower_1_conv_2_conv2d"
  param {
    lr_mult: 1.0
    decay_mult: 1.0
  }
  convolution_param {
    num_output: 192
    bias_term: false
    stride: 1
    weight_filler {
      type: "gaussian"
      std: 0.01
    }
    pad_h: 0
    pad_w: 3
    kernel_h: 1
    kernel_w: 7
  }
}
layer {
  name: "mixed_7_tower_1_conv_2_batchnorm"
  type: "BatchNorm"
  bottom: "mixed_7_tower_1_conv_2_conv2d"
  top: "mixed_7_tower_1_conv_2_conv2d_bn"
  param {
    lr_mult: 0.0
  }
  param {
    lr_mult: 0.0
  }
  param {
    lr_mult: 0.0
  }
  batch_norm_param {
    use_global_stats: false
    moving_average_fraction: 0.9997
    eps: 0.001
    scale_filler {
      type: "constant"
      value: 1.0
    }
    bias_filler {
      type: "constant"
      value: 0.0
    }
    engine: CUDNN
  }
}
layer {
  name: "mixed_7_tower_1_conv_2_relu"
  type: "ReLU"
  bottom: "mixed_7_tower_1_conv_2_conv2d_bn"
  top: "mixed_7_tower_1_conv_2_conv2d_relu"
}
layer {
  name: "mixed_7_tower_1_conv_3_conv2d"
  type: "Convolution"
  bottom: "mixed_7_tower_1_conv_2_conv2d_relu"
  top: "mixed_7_tower_1_conv_3_conv2d"
  param {
    lr_mult: 1.0
    decay_mult: 1.0
  }
  convolution_param {
    num_output: 192
    bias_term: false
    stride: 1
    weight_filler {
      type: "gaussian"
      std: 0.01
    }
    pad_h: 3
    pad_w: 0
    kernel_h: 7
    kernel_w: 1
  }
}
layer {
  name: "mixed_7_tower_1_conv_3_batchnorm"
  type: "BatchNorm"
  bottom: "mixed_7_tower_1_conv_3_conv2d"
  top: "mixed_7_tower_1_conv_3_conv2d_bn"
  param {
    lr_mult: 0.0
  }
  param {
    lr_mult: 0.0
  }
  param {
    lr_mult: 0.0
  }
  batch_norm_param {
    use_global_stats: false
    moving_average_fraction: 0.9997
    eps: 0.001
    scale_filler {
      type: "constant"
      value: 1.0
    }
    bias_filler {
      type: "constant"
      value: 0.0
    }
    engine: CUDNN
  }
}
layer {
  name: "mixed_7_tower_1_conv_3_relu"
  type: "ReLU"
  bottom: "mixed_7_tower_1_conv_3_conv2d_bn"
  top: "mixed_7_tower_1_conv_3_conv2d_relu"
}
layer {
  name: "mixed_7_tower_1_conv_4_conv2d"
  type: "Convolution"
  bottom: "mixed_7_tower_1_conv_3_conv2d_relu"
  top: "mixed_7_tower_1_conv_4_conv2d"
  param {
    lr_mult: 1.0
    decay_mult: 1.0
  }
  convolution_param {
    num_output: 192
    bias_term: false
    stride: 1
    weight_filler {
      type: "gaussian"
      std: 0.01
    }
    pad_h: 0
    pad_w: 3
    kernel_h: 1
    kernel_w: 7
  }
}
layer {
  name: "mixed_7_tower_1_conv_4_batchnorm"
  type: "BatchNorm"
  bottom: "mixed_7_tower_1_conv_4_conv2d"
  top: "mixed_7_tower_1_conv_4_conv2d_bn"
  param {
    lr_mult: 0.0
  }
  param {
    lr_mult: 0.0
  }
  param {
    lr_mult: 0.0
  }
  batch_norm_param {
    use_global_stats: false
    moving_average_fraction: 0.9997
    eps: 0.001
    scale_filler {
      type: "constant"
      value: 1.0
    }
    bias_filler {
      type: "constant"
      value: 0.0
    }
    engine: CUDNN
  }
}
layer {
  name: "mixed_7_tower_1_conv_4_relu"
  type: "ReLU"
  bottom: "mixed_7_tower_1_conv_4_conv2d_bn"
  top: "mixed_7_tower_1_conv_4_conv2d_relu"
}
layer {
  name: "AVE_pool_mixed_7_pool"
  type: "Pooling"
  bottom: "ch_concat_mixed_6_chconcat"
  top: "AVE_pool_mixed_7_pool"
  pooling_param {
    pool: AVE
    kernel_size: 3
    stride: 1
    pad: 1
  }
}
layer {
  name: "mixed_7_tower_2_conv_conv2d"
  type: "Convolution"
  bottom: "AVE_pool_mixed_7_pool"
  top: "mixed_7_tower_2_conv_conv2d"
  param {
    lr_mult: 1.0
    decay_mult: 1.0
  }
  convolution_param {
    num_output: 192
    bias_term: false
    pad: 0
    kernel_size: 1
    stride: 1
    weight_filler {
      type: "gaussian"
      std: 0.01
    }
  }
}
layer {
  name: "mixed_7_tower_2_conv_batchnorm"
  type: "BatchNorm"
  bottom: "mixed_7_tower_2_conv_conv2d"
  top: "mixed_7_tower_2_conv_conv2d_bn"
  param {
    lr_mult: 0.0
  }
  param {
    lr_mult: 0.0
  }
  param {
    lr_mult: 0.0
  }
  batch_norm_param {
    use_global_stats: false
    moving_average_fraction: 0.9997
    eps: 0.001
    scale_filler {
      type: "constant"
      value: 1.0
    }
    bias_filler {
      type: "constant"
      value: 0.0
    }
    engine: CUDNN
  }
}
layer {
  name: "mixed_7_tower_2_conv_relu"
  type: "ReLU"
  bottom: "mixed_7_tower_2_conv_conv2d_bn"
  top: "mixed_7_tower_2_conv_conv2d_relu"
}
layer {
  name: "ch_concat_mixed_7_chconcat"
  type: "Concat"
  bottom: "mixed_7_conv_conv2d_relu"
  bottom: "mixed_7_tower_conv_2_conv2d_relu"
  bottom: "mixed_7_tower_1_conv_4_conv2d_relu"
  bottom: "mixed_7_tower_2_conv_conv2d_relu"
  top: "ch_concat_mixed_7_chconcat"
  concat_param {
    axis: 1
  }
}
layer {
  name: "mixed_8_tower_conv_conv2d"
  type: "Convolution"
  bottom: "ch_concat_mixed_7_chconcat"
  top: "mixed_8_tower_conv_conv2d"
  param {
    lr_mult: 1.0
    decay_mult: 1.0
  }
  convolution_param {
    num_output: 192
    bias_term: false
    pad: 0
    kernel_size: 1
    stride: 1
    weight_filler {
      type: "gaussian"
      std: 0.01
    }
  }
}
layer {
  name: "mixed_8_tower_conv_batchnorm"
  type: "BatchNorm"
  bottom: "mixed_8_tower_conv_conv2d"
  top: "mixed_8_tower_conv_conv2d_bn"
  param {
    lr_mult: 0.0
  }
  param {
    lr_mult: 0.0
  }
  param {
    lr_mult: 0.0
  }
  batch_norm_param {
    use_global_stats: false
    moving_average_fraction: 0.9997
    eps: 0.001
    scale_filler {
      type: "constant"
      value: 1.0
    }
    bias_filler {
      type: "constant"
      value: 0.0
    }
    engine: CUDNN
  }
}
layer {
  name: "mixed_8_tower_conv_relu"
  type: "ReLU"
  bottom: "mixed_8_tower_conv_conv2d_bn"
  top: "mixed_8_tower_conv_conv2d_relu"
}
layer {
  name: "mixed_8_tower_conv_1_conv2d"
  type: "Convolution"
  bottom: "mixed_8_tower_conv_conv2d_relu"
  top: "mixed_8_tower_conv_1_conv2d"
  param {
    lr_mult: 1.0
    decay_mult: 1.0
  }
  convolution_param {
    num_output: 320
    bias_term: false
    pad: 0
    kernel_size: 3
    stride: 2
    weight_filler {
      type: "gaussian"
      std: 0.01
    }
  }
}
layer {
  name: "mixed_8_tower_conv_1_batchnorm"
  type: "BatchNorm"
  bottom: "mixed_8_tower_conv_1_conv2d"
  top: "mixed_8_tower_conv_1_conv2d_bn"
  param {
    lr_mult: 0.0
  }
  param {
    lr_mult: 0.0
  }
  param {
    lr_mult: 0.0
  }
  batch_norm_param {
    use_global_stats: false
    moving_average_fraction: 0.9997
    eps: 0.001
    scale_filler {
      type: "constant"
      value: 1.0
    }
    bias_filler {
      type: "constant"
      value: 0.0
    }
    engine: CUDNN
  }
}
layer {
  name: "mixed_8_tower_conv_1_relu"
  type: "ReLU"
  bottom: "mixed_8_tower_conv_1_conv2d_bn"
  top: "mixed_8_tower_conv_1_conv2d_relu"
}
layer {
  name: "mixed_8_tower_1_conv_conv2d"
  type: "Convolution"
  bottom: "ch_concat_mixed_7_chconcat"
  top: "mixed_8_tower_1_conv_conv2d"
  param {
    lr_mult: 1.0
    decay_mult: 1.0
  }
  convolution_param {
    num_output: 192
    bias_term: false
    pad: 0
    kernel_size: 1
    stride: 1
    weight_filler {
      type: "gaussian"
      std: 0.01
    }
  }
}
layer {
  name: "mixed_8_tower_1_conv_batchnorm"
  type: "BatchNorm"
  bottom: "mixed_8_tower_1_conv_conv2d"
  top: "mixed_8_tower_1_conv_conv2d_bn"
  param {
    lr_mult: 0.0
  }
  param {
    lr_mult: 0.0
  }
  param {
    lr_mult: 0.0
  }
  batch_norm_param {
    use_global_stats: false
    moving_average_fraction: 0.9997
    eps: 0.001
    scale_filler {
      type: "constant"
      value: 1.0
    }
    bias_filler {
      type: "constant"
      value: 0.0
    }
    engine: CUDNN
  }
}
layer {
  name: "mixed_8_tower_1_conv_relu"
  type: "ReLU"
  bottom: "mixed_8_tower_1_conv_conv2d_bn"
  top: "mixed_8_tower_1_conv_conv2d_relu"
}
layer {
  name: "mixed_8_tower_1_conv_1_conv2d"
  type: "Convolution"
  bottom: "mixed_8_tower_1_conv_conv2d_relu"
  top: "mixed_8_tower_1_conv_1_conv2d"
  param {
    lr_mult: 1.0
    decay_mult: 1.0
  }
  convolution_param {
    num_output: 192
    bias_term: false
    stride: 1
    weight_filler {
      type: "gaussian"
      std: 0.01
    }
    pad_h: 0
    pad_w: 3
    kernel_h: 1
    kernel_w: 7
  }
}
layer {
  name: "mixed_8_tower_1_conv_1_batchnorm"
  type: "BatchNorm"
  bottom: "mixed_8_tower_1_conv_1_conv2d"
  top: "mixed_8_tower_1_conv_1_conv2d_bn"
  param {
    lr_mult: 0.0
  }
  param {
    lr_mult: 0.0
  }
  param {
    lr_mult: 0.0
  }
  batch_norm_param {
    use_global_stats: false
    moving_average_fraction: 0.9997
    eps: 0.001
    scale_filler {
      type: "constant"
      value: 1.0
    }
    bias_filler {
      type: "constant"
      value: 0.0
    }
    engine: CUDNN
  }
}
layer {
  name: "mixed_8_tower_1_conv_1_relu"
  type: "ReLU"
  bottom: "mixed_8_tower_1_conv_1_conv2d_bn"
  top: "mixed_8_tower_1_conv_1_conv2d_relu"
}
layer {
  name: "mixed_8_tower_1_conv_2_conv2d"
  type: "Convolution"
  bottom: "mixed_8_tower_1_conv_1_conv2d_relu"
  top: "mixed_8_tower_1_conv_2_conv2d"
  param {
    lr_mult: 1.0
    decay_mult: 1.0
  }
  convolution_param {
    num_output: 192
    bias_term: false
    stride: 1
    weight_filler {
      type: "gaussian"
      std: 0.01
    }
    pad_h: 3
    pad_w: 0
    kernel_h: 7
    kernel_w: 1
  }
}
layer {
  name: "mixed_8_tower_1_conv_2_batchnorm"
  type: "BatchNorm"
  bottom: "mixed_8_tower_1_conv_2_conv2d"
  top: "mixed_8_tower_1_conv_2_conv2d_bn"
  param {
    lr_mult: 0.0
  }
  param {
    lr_mult: 0.0
  }
  param {
    lr_mult: 0.0
  }
  batch_norm_param {
    use_global_stats: false
    moving_average_fraction: 0.9997
    eps: 0.001
    scale_filler {
      type: "constant"
      value: 1.0
    }
    bias_filler {
      type: "constant"
      value: 0.0
    }
    engine: CUDNN
  }
}
layer {
  name: "mixed_8_tower_1_conv_2_relu"
  type: "ReLU"
  bottom: "mixed_8_tower_1_conv_2_conv2d_bn"
  top: "mixed_8_tower_1_conv_2_conv2d_relu"
}
layer {
  name: "mixed_8_tower_1_conv_3_conv2d"
  type: "Convolution"
  bottom: "mixed_8_tower_1_conv_2_conv2d_relu"
  top: "mixed_8_tower_1_conv_3_conv2d"
  param {
    lr_mult: 1.0
    decay_mult: 1.0
  }
  convolution_param {
    num_output: 192
    bias_term: false
    pad: 0
    kernel_size: 3
    stride: 2
    weight_filler {
      type: "gaussian"
      std: 0.01
    }
  }
}
layer {
  name: "mixed_8_tower_1_conv_3_batchnorm"
  type: "BatchNorm"
  bottom: "mixed_8_tower_1_conv_3_conv2d"
  top: "mixed_8_tower_1_conv_3_conv2d_bn"
  param {
    lr_mult: 0.0
  }
  param {
    lr_mult: 0.0
  }
  param {
    lr_mult: 0.0
  }
  batch_norm_param {
    use_global_stats: false
    moving_average_fraction: 0.9997
    eps: 0.001
    scale_filler {
      type: "constant"
      value: 1.0
    }
    bias_filler {
      type: "constant"
      value: 0.0
    }
    engine: CUDNN
  }
}
layer {
  name: "mixed_8_tower_1_conv_3_relu"
  type: "ReLU"
  bottom: "mixed_8_tower_1_conv_3_conv2d_bn"
  top: "mixed_8_tower_1_conv_3_conv2d_relu"
}
layer {
  name: "MAX_pool_mixed_8_pool"
  type: "Pooling"
  bottom: "ch_concat_mixed_7_chconcat"
  top: "MAX_pool_mixed_8_pool"
  pooling_param {
    pool: MAX
    kernel_size: 3
    stride: 2
    pad: 0
  }
}
layer {
  name: "ch_concat_mixed_8_chconcat"
  type: "Concat"
  bottom: "mixed_8_tower_conv_1_conv2d_relu"
  bottom: "mixed_8_tower_1_conv_3_conv2d_relu"
  bottom: "MAX_pool_mixed_8_pool"
  top: "ch_concat_mixed_8_chconcat"
  concat_param {
    axis: 1
  }
}
layer {
  name: "mixed_9_conv_conv2d"
  type: "Convolution"
  bottom: "ch_concat_mixed_8_chconcat"
  top: "mixed_9_conv_conv2d"
  param {
    lr_mult: 1.0
    decay_mult: 1.0
  }
  convolution_param {
    num_output: 320
    bias_term: false
    pad: 0
    stride: 1
    weight_filler {
      type: "gaussian"
      std: 0.01
    }
    kernel_h: 1
    kernel_w: 1
  }
}
layer {
  name: "mixed_9_conv_batchnorm"
  type: "BatchNorm"
  bottom: "mixed_9_conv_conv2d"
  top: "mixed_9_conv_conv2d_bn"
  param {
    lr_mult: 0.0
  }
  param {
    lr_mult: 0.0
  }
  param {
    lr_mult: 0.0
  }
  batch_norm_param {
    use_global_stats: false
    moving_average_fraction: 0.9997
    eps: 0.001
    scale_filler {
      type: "constant"
      value: 1.0
    }
    bias_filler {
      type: "constant"
      value: 0.0
    }
    engine: CUDNN
  }
}
layer {
  name: "mixed_9_conv_relu"
  type: "ReLU"
  bottom: "mixed_9_conv_conv2d_bn"
  top: "mixed_9_conv_conv2d_relu"
}
layer {
  name: "mixed_9_tower_conv_conv2d"
  type: "Convolution"
  bottom: "ch_concat_mixed_8_chconcat"
  top: "mixed_9_tower_conv_conv2d"
  param {
    lr_mult: 1.0
    decay_mult: 1.0
  }
  convolution_param {
    num_output: 384
    bias_term: false
    pad: 0
    kernel_size: 1
    stride: 1
    weight_filler {
      type: "gaussian"
      std: 0.01
    }
  }
}
layer {
  name: "mixed_9_tower_conv_batchnorm"
  type: "BatchNorm"
  bottom: "mixed_9_tower_conv_conv2d"
  top: "mixed_9_tower_conv_conv2d_bn"
  param {
    lr_mult: 0.0
  }
  param {
    lr_mult: 0.0
  }
  param {
    lr_mult: 0.0
  }
  batch_norm_param {
    use_global_stats: false
    moving_average_fraction: 0.9997
    eps: 0.001
    scale_filler {
      type: "constant"
      value: 1.0
    }
    bias_filler {
      type: "constant"
      value: 0.0
    }
    engine: CUDNN
  }
}
layer {
  name: "mixed_9_tower_conv_relu"
  type: "ReLU"
  bottom: "mixed_9_tower_conv_conv2d_bn"
  top: "mixed_9_tower_conv_conv2d_relu"
}
layer {
  name: "mixed_9_tower_mixed_conv_conv2d"
  type: "Convolution"
  bottom: "mixed_9_tower_conv_conv2d_relu"
  top: "mixed_9_tower_mixed_conv_conv2d"
  param {
    lr_mult: 1.0
    decay_mult: 1.0
  }
  convolution_param {
    num_output: 384
    bias_term: false
    stride: 1
    weight_filler {
      type: "gaussian"
      std: 0.01
    }
    pad_h: 0
    pad_w: 1
    kernel_h: 1
    kernel_w: 3
  }
}
layer {
  name: "mixed_9_tower_mixed_conv_batchnorm"
  type: "BatchNorm"
  bottom: "mixed_9_tower_mixed_conv_conv2d"
  top: "mixed_9_tower_mixed_conv_conv2d_bn"
  param {
    lr_mult: 0.0
  }
  param {
    lr_mult: 0.0
  }
  param {
    lr_mult: 0.0
  }
  batch_norm_param {
    use_global_stats: false
    moving_average_fraction: 0.9997
    eps: 0.001
    scale_filler {
      type: "constant"
      value: 1.0
    }
    bias_filler {
      type: "constant"
      value: 0.0
    }
    engine: CUDNN
  }
}
layer {
  name: "mixed_9_tower_mixed_conv_relu"
  type: "ReLU"
  bottom: "mixed_9_tower_mixed_conv_conv2d_bn"
  top: "mixed_9_tower_mixed_conv_conv2d_relu"
}
layer {
  name: "mixed_9_tower_mixed_conv_1_conv2d"
  type: "Convolution"
  bottom: "mixed_9_tower_conv_conv2d_relu"
  top: "mixed_9_tower_mixed_conv_1_conv2d"
  param {
    lr_mult: 1.0
    decay_mult: 1.0
  }
  convolution_param {
    num_output: 384
    bias_term: false
    stride: 1
    weight_filler {
      type: "gaussian"
      std: 0.01
    }
    pad_h: 1
    pad_w: 0
    kernel_h: 3
    kernel_w: 1
  }
}
layer {
  name: "mixed_9_tower_mixed_conv_1_batchnorm"
  type: "BatchNorm"
  bottom: "mixed_9_tower_mixed_conv_1_conv2d"
  top: "mixed_9_tower_mixed_conv_1_conv2d_bn"
  param {
    lr_mult: 0.0
  }
  param {
    lr_mult: 0.0
  }
  param {
    lr_mult: 0.0
  }
  batch_norm_param {
    use_global_stats: false
    moving_average_fraction: 0.9997
    eps: 0.001
    scale_filler {
      type: "constant"
      value: 1.0
    }
    bias_filler {
      type: "constant"
      value: 0.0
    }
    engine: CUDNN
  }
}
layer {
  name: "mixed_9_tower_mixed_conv_1_relu"
  type: "ReLU"
  bottom: "mixed_9_tower_mixed_conv_1_conv2d_bn"
  top: "mixed_9_tower_mixed_conv_1_conv2d_relu"
}
layer {
  name: "mixed_9_tower_1_conv_conv2d"
  type: "Convolution"
  bottom: "ch_concat_mixed_8_chconcat"
  top: "mixed_9_tower_1_conv_conv2d"
  param {
    lr_mult: 1.0
    decay_mult: 1.0
  }
  convolution_param {
    num_output: 448
    bias_term: false
    pad: 0
    kernel_size: 1
    stride: 1
    weight_filler {
      type: "gaussian"
      std: 0.01
    }
  }
}
layer {
  name: "mixed_9_tower_1_conv_batchnorm"
  type: "BatchNorm"
  bottom: "mixed_9_tower_1_conv_conv2d"
  top: "mixed_9_tower_1_conv_conv2d_bn"
  param {
    lr_mult: 0.0
  }
  param {
    lr_mult: 0.0
  }
  param {
    lr_mult: 0.0
  }
  batch_norm_param {
    use_global_stats: false
    moving_average_fraction: 0.9997
    eps: 0.001
    scale_filler {
      type: "constant"
      value: 1.0
    }
    bias_filler {
      type: "constant"
      value: 0.0
    }
    engine: CUDNN
  }
}
layer {
  name: "mixed_9_tower_1_conv_relu"
  type: "ReLU"
  bottom: "mixed_9_tower_1_conv_conv2d_bn"
  top: "mixed_9_tower_1_conv_conv2d_relu"
}
layer {
  name: "mixed_9_tower_1_conv_1_conv2d"
  type: "Convolution"
  bottom: "mixed_9_tower_1_conv_conv2d_relu"
  top: "mixed_9_tower_1_conv_1_conv2d"
  param {
    lr_mult: 1.0
    decay_mult: 1.0
  }
  convolution_param {
    num_output: 384
    bias_term: false
    pad: 1
    kernel_size: 3
    stride: 1
    weight_filler {
      type: "gaussian"
      std: 0.01
    }
  }
}
layer {
  name: "mixed_9_tower_1_conv_1_batchnorm"
  type: "BatchNorm"
  bottom: "mixed_9_tower_1_conv_1_conv2d"
  top: "mixed_9_tower_1_conv_1_conv2d_bn"
  param {
    lr_mult: 0.0
  }
  param {
    lr_mult: 0.0
  }
  param {
    lr_mult: 0.0
  }
  batch_norm_param {
    use_global_stats: false
    moving_average_fraction: 0.9997
    eps: 0.001
    scale_filler {
      type: "constant"
      value: 1.0
    }
    bias_filler {
      type: "constant"
      value: 0.0
    }
    engine: CUDNN
  }
}
layer {
  name: "mixed_9_tower_1_conv_1_relu"
  type: "ReLU"
  bottom: "mixed_9_tower_1_conv_1_conv2d_bn"
  top: "mixed_9_tower_1_conv_1_conv2d_relu"
}
layer {
  name: "mixed_9_tower_1_mixed_conv_conv2d"
  type: "Convolution"
  bottom: "mixed_9_tower_1_conv_1_conv2d_relu"
  top: "mixed_9_tower_1_mixed_conv_conv2d"
  param {
    lr_mult: 1.0
    decay_mult: 1.0
  }
  convolution_param {
    num_output: 384
    bias_term: false
    stride: 1
    weight_filler {
      type: "gaussian"
      std: 0.01
    }
    pad_h: 0
    pad_w: 1
    kernel_h: 1
    kernel_w: 3
  }
}
layer {
  name: "mixed_9_tower_1_mixed_conv_batchnorm"
  type: "BatchNorm"
  bottom: "mixed_9_tower_1_mixed_conv_conv2d"
  top: "mixed_9_tower_1_mixed_conv_conv2d_bn"
  param {
    lr_mult: 0.0
  }
  param {
    lr_mult: 0.0
  }
  param {
    lr_mult: 0.0
  }
  batch_norm_param {
    use_global_stats: false
    moving_average_fraction: 0.9997
    eps: 0.001
    scale_filler {
      type: "constant"
      value: 1.0
    }
    bias_filler {
      type: "constant"
      value: 0.0
    }
    engine: CUDNN
  }
}
layer {
  name: "mixed_9_tower_1_mixed_conv_relu"
  type: "ReLU"
  bottom: "mixed_9_tower_1_mixed_conv_conv2d_bn"
  top: "mixed_9_tower_1_mixed_conv_conv2d_relu"
}
layer {
  name: "mixed_9_tower_1_mixed_conv_1_conv2d"
  type: "Convolution"
  bottom: "mixed_9_tower_1_conv_1_conv2d_relu"
  top: "mixed_9_tower_1_mixed_conv_1_conv2d"
  param {
    lr_mult: 1.0
    decay_mult: 1.0
  }
  convolution_param {
    num_output: 384
    bias_term: false
    stride: 1
    weight_filler {
      type: "gaussian"
      std: 0.01
    }
    pad_h: 1
    pad_w: 0
    kernel_h: 3
    kernel_w: 1
  }
}
layer {
  name: "mixed_9_tower_1_mixed_conv_1_batchnorm"
  type: "BatchNorm"
  bottom: "mixed_9_tower_1_mixed_conv_1_conv2d"
  top: "mixed_9_tower_1_mixed_conv_1_conv2d_bn"
  param {
    lr_mult: 0.0
  }
  param {
    lr_mult: 0.0
  }
  param {
    lr_mult: 0.0
  }
  batch_norm_param {
    use_global_stats: false
    moving_average_fraction: 0.9997
    eps: 0.001
    scale_filler {
      type: "constant"
      value: 1.0
    }
    bias_filler {
      type: "constant"
      value: 0.0
    }
    engine: CUDNN
  }
}
layer {
  name: "mixed_9_tower_1_mixed_conv_1_relu"
  type: "ReLU"
  bottom: "mixed_9_tower_1_mixed_conv_1_conv2d_bn"
  top: "mixed_9_tower_1_mixed_conv_1_conv2d_relu"
}
layer {
  name: "AVE_pool_mixed_9_pool"
  type: "Pooling"
  bottom: "ch_concat_mixed_8_chconcat"
  top: "AVE_pool_mixed_9_pool"
  pooling_param {
    pool: AVE
    kernel_size: 3
    stride: 1
    pad: 1
  }
}
layer {
  name: "mixed_9_tower_2_conv_conv2d"
  type: "Convolution"
  bottom: "AVE_pool_mixed_9_pool"
  top: "mixed_9_tower_2_conv_conv2d"
  param {
    lr_mult: 1.0
    decay_mult: 1.0
  }
  convolution_param {
    num_output: 192
    bias_term: false
    pad: 0
    kernel_size: 1
    stride: 1
    weight_filler {
      type: "gaussian"
      std: 0.01
    }
  }
}
layer {
  name: "mixed_9_tower_2_conv_batchnorm"
  type: "BatchNorm"
  bottom: "mixed_9_tower_2_conv_conv2d"
  top: "mixed_9_tower_2_conv_conv2d_bn"
  param {
    lr_mult: 0.0
  }
  param {
    lr_mult: 0.0
  }
  param {
    lr_mult: 0.0
  }
  batch_norm_param {
    use_global_stats: false
    moving_average_fraction: 0.9997
    eps: 0.001
    scale_filler {
      type: "constant"
      value: 1.0
    }
    bias_filler {
      type: "constant"
      value: 0.0
    }
    engine: CUDNN
  }
}
layer {
  name: "mixed_9_tower_2_conv_relu"
  type: "ReLU"
  bottom: "mixed_9_tower_2_conv_conv2d_bn"
  top: "mixed_9_tower_2_conv_conv2d_relu"
}
layer {
  name: "ch_concat_mixed_9_chconcat"
  type: "Concat"
  bottom: "mixed_9_conv_conv2d_relu"
  bottom: "mixed_9_tower_mixed_conv_conv2d_relu"
  bottom: "mixed_9_tower_mixed_conv_1_conv2d_relu"
  bottom: "mixed_9_tower_1_mixed_conv_conv2d_relu"
  bottom: "mixed_9_tower_1_mixed_conv_1_conv2d_relu"
  bottom: "mixed_9_tower_2_conv_conv2d_relu"
  top: "ch_concat_mixed_9_chconcat"
  concat_param {
    axis: 1
  }
}
layer {
  name: "mixed_10_conv_conv2d"
  type: "Convolution"
  bottom: "ch_concat_mixed_9_chconcat"
  top: "mixed_10_conv_conv2d"
  param {
    lr_mult: 1.0
    decay_mult: 1.0
  }
  convolution_param {
    num_output: 320
    bias_term: false
    pad: 0
    stride: 1
    weight_filler {
      type: "gaussian"
      std: 0.01
    }
    kernel_h: 1
    kernel_w: 1
  }
}
layer {
  name: "mixed_10_conv_batchnorm"
  type: "BatchNorm"
  bottom: "mixed_10_conv_conv2d"
  top: "mixed_10_conv_conv2d_bn"
  param {
    lr_mult: 0.0
  }
  param {
    lr_mult: 0.0
  }
  param {
    lr_mult: 0.0
  }
  batch_norm_param {
    use_global_stats: false
    moving_average_fraction: 0.9997
    eps: 0.001
    scale_filler {
      type: "constant"
      value: 1.0
    }
    bias_filler {
      type: "constant"
      value: 0.0
    }
    engine: CUDNN
  }
}
layer {
  name: "mixed_10_conv_relu"
  type: "ReLU"
  bottom: "mixed_10_conv_conv2d_bn"
  top: "mixed_10_conv_conv2d_relu"
}
layer {
  name: "mixed_10_tower_conv_conv2d"
  type: "Convolution"
  bottom: "ch_concat_mixed_9_chconcat"
  top: "mixed_10_tower_conv_conv2d"
  param {
    lr_mult: 1.0
    decay_mult: 1.0
  }
  convolution_param {
    num_output: 384
    bias_term: false
    pad: 0
    kernel_size: 1
    stride: 1
    weight_filler {
      type: "gaussian"
      std: 0.01
    }
  }
}
layer {
  name: "mixed_10_tower_conv_batchnorm"
  type: "BatchNorm"
  bottom: "mixed_10_tower_conv_conv2d"
  top: "mixed_10_tower_conv_conv2d_bn"
  param {
    lr_mult: 0.0
  }
  param {
    lr_mult: 0.0
  }
  param {
    lr_mult: 0.0
  }
  batch_norm_param {
    use_global_stats: false
    moving_average_fraction: 0.9997
    eps: 0.001
    scale_filler {
      type: "constant"
      value: 1.0
    }
    bias_filler {
      type: "constant"
      value: 0.0
    }
    engine: CUDNN
  }
}
layer {
  name: "mixed_10_tower_conv_relu"
  type: "ReLU"
  bottom: "mixed_10_tower_conv_conv2d_bn"
  top: "mixed_10_tower_conv_conv2d_relu"
}
layer {
  name: "mixed_10_tower_mixed_conv_conv2d"
  type: "Convolution"
  bottom: "mixed_10_tower_conv_conv2d_relu"
  top: "mixed_10_tower_mixed_conv_conv2d"
  param {
    lr_mult: 1.0
    decay_mult: 1.0
  }
  convolution_param {
    num_output: 384
    bias_term: false
    stride: 1
    weight_filler {
      type: "gaussian"
      std: 0.01
    }
    pad_h: 0
    pad_w: 1
    kernel_h: 1
    kernel_w: 3
  }
}
layer {
  name: "mixed_10_tower_mixed_conv_batchnorm"
  type: "BatchNorm"
  bottom: "mixed_10_tower_mixed_conv_conv2d"
  top: "mixed_10_tower_mixed_conv_conv2d_bn"
  param {
    lr_mult: 0.0
  }
  param {
    lr_mult: 0.0
  }
  param {
    lr_mult: 0.0
  }
  batch_norm_param {
    use_global_stats: false
    moving_average_fraction: 0.9997
    eps: 0.001
    scale_filler {
      type: "constant"
      value: 1.0
    }
    bias_filler {
      type: "constant"
      value: 0.0
    }
    engine: CUDNN
  }
}
layer {
  name: "mixed_10_tower_mixed_conv_relu"
  type: "ReLU"
  bottom: "mixed_10_tower_mixed_conv_conv2d_bn"
  top: "mixed_10_tower_mixed_conv_conv2d_relu"
}
layer {
  name: "mixed_10_tower_mixed_conv_1_conv2d"
  type: "Convolution"
  bottom: "mixed_10_tower_conv_conv2d_relu"
  top: "mixed_10_tower_mixed_conv_1_conv2d"
  param {
    lr_mult: 1.0
    decay_mult: 1.0
  }
  convolution_param {
    num_output: 384
    bias_term: false
    stride: 1
    weight_filler {
      type: "gaussian"
      std: 0.01
    }
    pad_h: 1
    pad_w: 0
    kernel_h: 3
    kernel_w: 1
  }
}
layer {
  name: "mixed_10_tower_mixed_conv_1_batchnorm"
  type: "BatchNorm"
  bottom: "mixed_10_tower_mixed_conv_1_conv2d"
  top: "mixed_10_tower_mixed_conv_1_conv2d_bn"
  param {
    lr_mult: 0.0
  }
  param {
    lr_mult: 0.0
  }
  param {
    lr_mult: 0.0
  }
  batch_norm_param {
    use_global_stats: false
    moving_average_fraction: 0.9997
    eps: 0.001
    scale_filler {
      type: "constant"
      value: 1.0
    }
    bias_filler {
      type: "constant"
      value: 0.0
    }
    engine: CUDNN
  }
}
layer {
  name: "mixed_10_tower_mixed_conv_1_relu"
  type: "ReLU"
  bottom: "mixed_10_tower_mixed_conv_1_conv2d_bn"
  top: "mixed_10_tower_mixed_conv_1_conv2d_relu"
}
layer {
  name: "mixed_10_tower_1_conv_conv2d"
  type: "Convolution"
  bottom: "ch_concat_mixed_9_chconcat"
  top: "mixed_10_tower_1_conv_conv2d"
  param {
    lr_mult: 1.0
    decay_mult: 1.0
  }
  convolution_param {
    num_output: 448
    bias_term: false
    pad: 0
    kernel_size: 1
    stride: 1
    weight_filler {
      type: "gaussian"
      std: 0.01
    }
  }
}
layer {
  name: "mixed_10_tower_1_conv_batchnorm"
  type: "BatchNorm"
  bottom: "mixed_10_tower_1_conv_conv2d"
  top: "mixed_10_tower_1_conv_conv2d_bn"
  param {
    lr_mult: 0.0
  }
  param {
    lr_mult: 0.0
  }
  param {
    lr_mult: 0.0
  }
  batch_norm_param {
    use_global_stats: false
    moving_average_fraction: 0.9997
    eps: 0.001
    scale_filler {
      type: "constant"
      value: 1.0
    }
    bias_filler {
      type: "constant"
      value: 0.0
    }
    engine: CUDNN
  }
}
layer {
  name: "mixed_10_tower_1_conv_relu"
  type: "ReLU"
  bottom: "mixed_10_tower_1_conv_conv2d_bn"
  top: "mixed_10_tower_1_conv_conv2d_relu"
}
layer {
  name: "mixed_10_tower_1_conv_1_conv2d"
  type: "Convolution"
  bottom: "mixed_10_tower_1_conv_conv2d_relu"
  top: "mixed_10_tower_1_conv_1_conv2d"
  param {
    lr_mult: 1.0
    decay_mult: 1.0
  }
  convolution_param {
    num_output: 384
    bias_term: false
    pad: 1
    kernel_size: 3
    stride: 1
    weight_filler {
      type: "gaussian"
      std: 0.01
    }
  }
}
layer {
  name: "mixed_10_tower_1_conv_1_batchnorm"
  type: "BatchNorm"
  bottom: "mixed_10_tower_1_conv_1_conv2d"
  top: "mixed_10_tower_1_conv_1_conv2d_bn"
  param {
    lr_mult: 0.0
  }
  param {
    lr_mult: 0.0
  }
  param {
    lr_mult: 0.0
  }
  batch_norm_param {
    use_global_stats: false
    moving_average_fraction: 0.9997
    eps: 0.001
    scale_filler {
      type: "constant"
      value: 1.0
    }
    bias_filler {
      type: "constant"
      value: 0.0
    }
    engine: CUDNN
  }
}
layer {
  name: "mixed_10_tower_1_conv_1_relu"
  type: "ReLU"
  bottom: "mixed_10_tower_1_conv_1_conv2d_bn"
  top: "mixed_10_tower_1_conv_1_conv2d_relu"
}
layer {
  name: "mixed_10_tower_1_mixed_conv_conv2d"
  type: "Convolution"
  bottom: "mixed_10_tower_1_conv_1_conv2d_relu"
  top: "mixed_10_tower_1_mixed_conv_conv2d"
  param {
    lr_mult: 1.0
    decay_mult: 1.0
  }
  convolution_param {
    num_output: 384
    bias_term: false
    stride: 1
    weight_filler {
      type: "gaussian"
      std: 0.01
    }
    pad_h: 0
    pad_w: 1
    kernel_h: 1
    kernel_w: 3
  }
}
layer {
  name: "mixed_10_tower_1_mixed_conv_batchnorm"
  type: "BatchNorm"
  bottom: "mixed_10_tower_1_mixed_conv_conv2d"
  top: "mixed_10_tower_1_mixed_conv_conv2d_bn"
  param {
    lr_mult: 0.0
  }
  param {
    lr_mult: 0.0
  }
  param {
    lr_mult: 0.0
  }
  batch_norm_param {
    use_global_stats: false
    moving_average_fraction: 0.9997
    eps: 0.001
    scale_filler {
      type: "constant"
      value: 1.0
    }
    bias_filler {
      type: "constant"
      value: 0.0
    }
    engine: CUDNN
  }
}
layer {
  name: "mixed_10_tower_1_mixed_conv_relu"
  type: "ReLU"
  bottom: "mixed_10_tower_1_mixed_conv_conv2d_bn"
  top: "mixed_10_tower_1_mixed_conv_conv2d_relu"
}
layer {
  name: "mixed_10_tower_1_mixed_conv_1_conv2d"
  type: "Convolution"
  bottom: "mixed_10_tower_1_conv_1_conv2d_relu"
  top: "mixed_10_tower_1_mixed_conv_1_conv2d"
  param {
    lr_mult: 1.0
    decay_mult: 1.0
  }
  convolution_param {
    num_output: 384
    bias_term: false
    stride: 1
    weight_filler {
      type: "gaussian"
      std: 0.01
    }
    pad_h: 1
    pad_w: 0
    kernel_h: 3
    kernel_w: 1
  }
}
layer {
  name: "mixed_10_tower_1_mixed_conv_1_batchnorm"
  type: "BatchNorm"
  bottom: "mixed_10_tower_1_mixed_conv_1_conv2d"
  top: "mixed_10_tower_1_mixed_conv_1_conv2d_bn"
  param {
    lr_mult: 0.0
  }
  param {
    lr_mult: 0.0
  }
  param {
    lr_mult: 0.0
  }
  batch_norm_param {
    use_global_stats: false
    moving_average_fraction: 0.9997
    eps: 0.001
    scale_filler {
      type: "constant"
      value: 1.0
    }
    bias_filler {
      type: "constant"
      value: 0.0
    }
    engine: CUDNN
  }
}
layer {
  name: "mixed_10_tower_1_mixed_conv_1_relu"
  type: "ReLU"
  bottom: "mixed_10_tower_1_mixed_conv_1_conv2d_bn"
  top: "mixed_10_tower_1_mixed_conv_1_conv2d_relu"
}
layer {
  name: "MAX_pool_mixed_10_pool"
  type: "Pooling"
  bottom: "ch_concat_mixed_9_chconcat"
  top: "MAX_pool_mixed_10_pool"
  pooling_param {
    pool: MAX
    kernel_size: 3
    stride: 1
    pad: 1
  }
}
layer {
  name: "mixed_10_tower_2_conv_conv2d"
  type: "Convolution"
  bottom: "MAX_pool_mixed_10_pool"
  top: "mixed_10_tower_2_conv_conv2d"
  param {
    lr_mult: 1.0
    decay_mult: 1.0
  }
  convolution_param {
    num_output: 192
    bias_term: false
    pad: 0
    kernel_size: 1
    stride: 1
    weight_filler {
      type: "gaussian"
      std: 0.01
    }
  }
}
layer {
  name: "mixed_10_tower_2_conv_batchnorm"
  type: "BatchNorm"
  bottom: "mixed_10_tower_2_conv_conv2d"
  top: "mixed_10_tower_2_conv_conv2d_bn"
  param {
    lr_mult: 0.0
  }
  param {
    lr_mult: 0.0
  }
  param {
    lr_mult: 0.0
  }
  batch_norm_param {
    use_global_stats: false
    moving_average_fraction: 0.9997
    eps: 0.001
    scale_filler {
      type: "constant"
      value: 1.0
    }
    bias_filler {
      type: "constant"
      value: 0.0
    }
    engine: CUDNN
  }
}
layer {
  name: "mixed_10_tower_2_conv_relu"
  type: "ReLU"
  bottom: "mixed_10_tower_2_conv_conv2d_bn"
  top: "mixed_10_tower_2_conv_conv2d_relu"
}
layer {
  name: "ch_concat_mixed_10_chconcat"
  type: "Concat"
  bottom: "mixed_10_conv_conv2d_relu"
  bottom: "mixed_10_tower_mixed_conv_conv2d_relu"
  bottom: "mixed_10_tower_mixed_conv_1_conv2d_relu"
  bottom: "mixed_10_tower_1_mixed_conv_conv2d_relu"
  bottom: "mixed_10_tower_1_mixed_conv_1_conv2d_relu"
  bottom: "mixed_10_tower_2_conv_conv2d_relu"
  top: "ch_concat_mixed_10_chconcat"
  concat_param {
    axis: 1
  }
}
layer {
  name: "global_pool"
  type: "Pooling"
  bottom: "ch_concat_mixed_10_chconcat"
  top: "global_pool"
  pooling_param {
    pool: AVE
    kernel_size: 8
    stride: 1
    pad: 0
  }
}
layer {
  name: "drop"
  type: "Dropout"
  bottom: "global_pool"
  top: "global_pool"
  dropout_param {
    dropout_ratio: 0.8
  }
}
layer {
  name: "flatten"
  type: "Flatten"
  bottom: "global_pool"
  top: "flatten"
}
layer {
  name: "fc1"
  type: "InnerProduct"
  bottom: "flatten"
  top: "fc1"
  param {
    lr_mult: 1.0
    decay_mult: 1.0
  }
  param {
    lr_mult: 2.0
    decay_mult: 0.0
  }
  inner_product_param {
    num_output: 1000
    weight_filler {
      type: "xavier"
    }
    bias_filler {
      type: "constant"
      value: 0.0
    }
  }
}
layer {
  name: "loss"
  type: "SoftmaxWithLoss"
  bottom: "fc1"
  bottom: "label"
  top: "loss"
}
